services/pokertorch.pt (torch, 27032 bytes, 5 tensors)

weight f4 [64, 2]
000000 df e5 e0 be c4 c0 e3 bb 78 0b fc be 3c 80 b1 be
       -0.43925378 -0.0069504697 -0.492275 -0.34668148
000010 cb 78 09 3e 1e 5e 76 be 4e e9 56 3e 17 82 09 bf
       0.13424985 -0.2405934 0.20987436 -0.53714126
000020 ab a0 e3 3b fd 27 c3 be d6 54 06 3e 23 bd 9c be
       0.0069466433 -0.38116446 0.131183 -0.3061305
000030 e5 73 6a 3e 2c 10 3c bd f7 d8 86 be c3 ef 1b bf
       0.22895773 -0.04591386 -0.26337406 -0.6091272
000040 74 32 85 bf e0 71 fd bd af f0 08 3f 9b 04 1e bf
       -1.0406022 -0.123752356 0.53492254 -0.6172578
000050 93 7a 88 3c e9 88 cf 3c 26 44 e9 3e 40 45 a0 bf
       0.01666001 0.025333839 0.45559806 -1.2521133
000060 2a d9 a5 3e 46 da ee be 68 fb 6e be 35 b2 10 3e
       0.32392246 -0.46650904 -0.23338091 0.1413048
000070 7e 64 37 3e 34 5e aa bb df 0c 1d 3f 38 17 5c bf
       0.17909428 -0.005199218 0.61347765 -0.8597293
000080 8e d1 08 3f ba 5d ae bc cb 5a ec be 48 f1 39 3e
       0.53444755 -0.021284927 -0.4616302 0.18158448
000090 58 3a 06 bf c5 9a df be 6d 39 f1 be 1f ef 1e be
       -0.52432775 -0.43672767 -0.47114125 -0.15520905
0000a0 73 0d a2 3e 43 95 55 bf b2 f6 50 3e 0a 0a a9 bf
       0.31650886 -0.8343088 0.20406607 -1.3206189
0000b0 bc 98 3d 3f 9c 94 14 3e e2 75 c6 3e 32 29 32 3f
       0.7406118 0.14509815 0.38761812 0.6959411
0000c0 b5 bd 34 bf b7 de 0b bf 93 6c b2 bd 1f be aa 3d
       -0.7060197 -0.5463671 -0.08712115 0.08337044
0000d0 31 1f 86 be 84 51 36 bf c3 84 ae be 0d d3 12 bf
       -0.26195672 -0.7121813 -0.34085664 -0.5735329
0000e0 fa 81 2e bf 19 b1 d2 be ab 50 d4 3e 7f 06 bb 3e
       -0.6816708 -0.4115074 0.41467795 0.36528394
0000f0 77 93 8d bd c3 9a b8 3e ba 5d e9 3d 31 78 94 be
       -0.06912892 0.36055574 0.1139483 -0.2899795
000100 a3 2e 72 be e1 3c fa 3e 12 c8 4f 3d 12 1f 33 be
       -0.23650603 0.48874572 0.05072791 -0.17492321
000110 1e 69 91 be 3e 55 83 bf b4 77 9f bd fc 41 3d be
       -0.2840051 -1.0260389 -0.077865034 -0.18482202
000120 39 65 0b 3f 39 f3 64 3f 5c 4a 45 3e 93 b9 d4 be
       0.5445133 0.8943363 0.19266647 -0.41547832
000130 02 4d 1e 3f f6 c2 1a 3f e6 d7 51 bf a5 fe 9a 3e
       0.61836255 0.60453737 -0.8197006 0.30272403
000140 21 26 23 3e 3e 1e 2c bd 1c 3d 29 bf ba bd 52 3e
       0.15932514 -0.04202103 -0.6610887 0.20580187
000150 5f 54 f5 be c0 0c e8 bd 87 08 11 bf 02 f7 be 3b
       -0.47915933 -0.11330557 -0.56653637 0.0058277855
000160 ca 1c 11 bf 76 2f 4c 3f 68 ac 02 bf 24 96 fc be
       -0.56684554 0.7975992 -0.5104432 -0.49333298
000170 40 78 9f be 9b 86 f9 bf 80 56 9c be 31 0a 10 be
       -0.3114643 -1.9494203 -0.30534744 -0.14066388
000180 57 39 e1 3e 33 68 35 3f 26 aa 2c 3e 92 b2 34 be
       0.4398906 0.7086212 0.16861781 -0.17646244
000190 20 bc 16 bf a3 10 01 3f a6 88 1b 3f a1 a0 8a 3e
       -0.58880806 0.5041601 0.60755384 0.27075675
0001a0 11 a9 a2 be f7 a0 3d bf ff c9 ba 3e f9 ab 99 be
       -0.31769612 -0.7407374 0.36482236 -0.30014017
0001b0 51 43 14 bf 37 94 68 be 3e b8 c1 be 27 c0 f9 bd
       -0.57915217 -0.2271279 -0.37835878 -0.12194853
0001c0 86 c7 3c be be 33 ed 3e 3d 58 90 3e 05 bf 91 3e
       -0.18435487 0.4632854 0.2819232 0.2846605
0001d0 56 ed 30 3d 5d 9a 87 bd 55 a6 37 be be 42 40 3f
       0.04319509 -0.06621239 -0.17934544 0.7510184
0001e0 bb 08 6a be c7 61 ae bf bf 57 9e 3e ef 65 91 be
       -0.22854893 -1.3623589 0.3092632 -0.28398082
0001f0 1f ef df bd eb cf 13 3e 02 2b 25 bf fc a6 e4 be
       -0.109342806 0.14434783 -0.6451875 -0.4465865

bias f4 [64]
000000 88 37 9d 39 95 c9 20 3f 42 87 11 be a4 ba 96 be
       0.00029986748 0.6280759 -0.14211753 -0.2943927
000010 fe 57 fc bd 84 eb 2f bf af e0 6b be ce c7 ef bd
       -0.12321471 -0.68718743 -0.23034929 -0.117080316
000020 e2 06 ef 3d 9a 9d 0b bf b1 e5 2f bd c4 b4 44 bd
       0.11671235 -0.54537356 -0.04294366 -0.048023954
000030 77 c8 20 bf b5 3e 25 bf 44 a4 38 be 38 38 16 bc
       -0.62805885 -0.6454881 -0.18031412 -0.009168677
000040 cb 1e 93 be 66 69 37 be 2f 77 e3 3e 9d d0 b4 be
       -0.2873443 -0.179113 0.44426867 -0.3531541
000050 56 c5 22 be 5c 4c 8b 3d e1 61 b7 bd 6f f8 68 be
       -0.1589559 0.06801674 -0.08954216 -0.2275102
000060 bd aa 5c be b1 cb ac bd 39 23 53 3e bf c1 38 3f
       -0.21549506 -0.084372886 0.20618905 0.72170633
000070 34 09 1c bf 02 97 7f be 1f a8 18 bf c4 fa fd be
       -0.6095154 -0.24959949 -0.5963153 -0.4960538
000080 00 a0 2b bf ad 3f 4d bd 1c f8 92 3e a9 e7 f9 bc
       -0.67041016 -0.050109554 0.28704917 -0.030505972
000090 d9 56 22 bf a7 c2 9e be d4 0f 25 bf 05 dc 98 be
       -0.6341377 -0.31007883 -0.64477277 -0.29855362
0000a0 77 f6 23 be c1 2d fc be c6 03 66 3e a6 d9 c7 bb
       -0.16011988 -0.49253657 0.22462377 -0.0060989438
0000b0 88 61 01 be d6 0b 0e 3f a5 6a 05 3e a9 30 93 3d
       -0.12634861 0.5548681 0.13028963 0.071870156
0000c0 43 cb 84 be 02 a8 ae be d7 cb fb be cd fb 71 be
       -0.25936326 -0.34112555 -0.49178955 -0.2363121
0000d0 fd 00 82 3e d6 4f 20 bf 13 63 8e 3e 97 d6 34 3e
       0.2539138 -0.6262182 0.27809963 0.17659985
0000e0 fc b7 2d bf a3 88 21 bf d1 c9 2f bd 02 b0 20 bf
       -0.6785886 -0.63099116 -0.042917076 -0.62768567
0000f0 c6 3b a4 3d 78 ab 02 bf 53 8b 11 be d1 0e 22 be
       0.080192134 -0.5104289 -0.14213304 -0.15825965

weight f4 [64, 64]
000000 e8 9f e9 3c d0 77 9e 3e ca d8 fb b9 e0 e3 c9 bb
       0.028518632 0.30950785 -0.0004803597 -0.006161198
000010 64 38 0b 3d b6 94 bf 3d 81 c1 31 3d 9a c8 be 3d
       0.033989325 0.09354536 0.04339743 0.093156055
000020 d5 1b 6b 3e 14 98 41 bd 97 fd 52 3c 0b 53 75 3f
       0.22959836 -0.047264174 0.012877843 0.9582984
000030 fc cd e4 3d 7c 50 48 3d 84 e3 19 3e 07 de 6e be
       0.11172101 0.04890488 0.15028197 -0.23326884
000040 aa 64 16 3d 2b 6b 9b bd 5a 51 f7 3e ba 03 b5 3d
       0.036717094 -0.075888 0.48304254 0.088386014
000050 a4 29 ed 3d d0 15 ac 3e 01 65 21 be 52 1f 1f be
       0.11580208 0.33610392 -0.15761186 -0.15539292
000060 64 c6 c0 3d 94 32 c3 3d 9f be e3 3d eb ad ab 3e
       0.0941284 0.095311314 0.111203425 0.33531126
000070 c8 37 b9 3c 37 ca 07 bc a4 17 77 3d c6 ed a2 bd
       0.022609606 -0.008287958 0.06032528 -0.07955508
000080 74 e5 c3 bd 8b e6 00 3e 09 e4 32 3f 4c 8e 23 bd
       -0.09565249 0.12587945 0.69879204 -0.039930627
000090 fe f8 c9 bd 84 9a 58 bd 33 9e aa bf 97 e7 3c 3d
       -0.098619446 -0.052881733 -1.3329529 0.0461193
0000a0 89 f0 b7 3d f6 d8 eb bd b5 cc 25 3d 9d a3 7e 3c
       0.08981425 -0.115159914 0.040478427 0.015541938
0000b0 2e 23 82 be a4 4c 9b 3e 3f a4 2d bf cd a1 ca 3d
       -0.25417465 0.3033191 -0.67828745 0.09894142
0000c0 41 f7 2b be 08 63 80 bd 90 4a 03 be 4c 6e 2a 3c
       -0.16793539 -0.06268889 -0.12821412 0.010402273
0000d0 cd 84 dd 3d 88 f6 eb 3d 98 e4 29 3c 5a 8f 26 3e
       0.10816345 0.115216315 0.010369442 0.16265622
0000e0 1a 09 fe 3d 3c b4 87 bd b4 25 a6 3d 06 7a ee bd
       0.1240408 -0.06626174 0.0811266 -0.11644368
0000f0 36 5b 23 bd 7e e1 ff bd ae d1 8b 3c 98 86 29 3d
       -0.039881907 -0.12494181 0.017067757 0.041388124
000100 e0 b5 2c be bd cf 0b 3c db bd 1d 3d 18 50 65 3d
       -0.16866255 0.008533415 0.03851114 0.055984586
000110 60 82 db bb 1c ea 04 bd 7b 51 98 bd 9c 27 2c 3d
       -0.0066988915 -0.032449827 -0.07437416 0.042029962
000120 5e e3 df 3d e4 5d 31 3d db aa 98 bd 16 45 fd bd
       0.10932039 0.04330243 -0.07454463 -0.12366693
000130 92 30 b3 3d 26 76 cb 3d 07 02 00 be 52 ba b9 bd
       0.087494984 0.099346444 -0.12500773 -0.09068741
000140 00 87 71 3d c2 13 ca 3d f8 b0 31 bd b8 7b ee 3c
       0.058966637 0.0986705 -0.04338166 0.029111728
000150 b3 a8 a8 bd 91 4e e6 3b e3 65 8e 3d 8f 01 39 3d
       -0.08235302 0.007028409 0.06953027 0.045167502
000160 30 a3 f7 3d f4 a3 ec bd 6c f8 e9 3d ee 56 ce bc
       0.120916724 -0.11554709 0.11424336 -0.025187936
000170 2e 02 ee bd 80 ce 1c be 8c a5 d6 bd 00 fc 79 bd
       -0.116215095 -0.15313148 -0.10480794 -0.06103134
000180 5c 32 07 bd e1 ce 83 3c 2e 4a 92 3d fc 6c 2d bd
       -0.03300701 0.016089858 0.07143055 -0.042340264
000190 50 eb 3f 3c 76 0a b6 bd b0 2b da bd f8 79 29 3d
       0.011713818 -0.08888714 -0.10652864 0.041376084
0001a0 00 d7 05 be b8 53 f4 3c 5a e1 a7 3d 79 2f 21 be
       -0.13070297 0.029825076 0.08197279 -0.15740766
0001b0 1f 5a d7 bc 01 0a 15 bd 0a cc 5e 3d b9 ce 18 3c
       -0.02628809 -0.036386494 0.054393806 0.00932663
0001c0 7f 93 fb 3c 40 4e c3 3d 98 e6 a4 bc 71 19 60 3c
       0.03070998 0.095364094 -0.020129487 0.013677941
0001d0 71 28 ff bd 9c 7e be 3d d1 69 3a 3d b8 a3 a3 bd
       -0.124588855 0.093014926 0.04551107 -0.07990211
0001e0 b6 66 ae 3d 88 40 f3 bd f8 ef 10 be 85 e2 fb bd
       0.08515684 -0.11877543 -0.14154041 -0.122990645
0001f0 65 41 c2 3c 96 6f dc 3d c2 bd 9e bd 8c 95 3e bd
       0.023712823 0.10763471 -0.07751037 -0.046529338
000200 64 ad 9a bd 62 d5 7e bc d3 22 95 bd 90 65 72 3c
       -0.07552603 -0.015553804 -0.07282033 0.014794722
000210 00 5d 94 ba 90 5f 4b bc 8c fe 07 be e2 cc 8d 3d
       -0.001131922 -0.012412921 -0.13280696 0.06923844
000220 ed d0 49 bd 88 f5 c6 3c 09 64 cd bd 58 34 97 3d
       -0.049271513 0.024287 -0.10028846 0.07383031
000230 48 cc 43 3d a8 f1 03 3d 73 be ce bc f4 f7 55 bd
       0.04780224 0.032212883 -0.025237298 -0.05223842
000240 67 c7 24 bd 21 58 8f bc 38 25 42 bc 34 fa 28 bd
       -0.040229227 -0.017498078 -0.011849694 -0.041254237
000250 59 34 92 3a 8c 61 f0 bd 78 18 c0 bd 60 fc 9f bb
       0.0011154517 -0.117373556 -0.09379667 -0.0048823804
000260 30 b6 67 bc 85 73 2b 3d 73 64 00 3d 7e 0e 08 bd
       -0.014142558 0.041858215 0.031345796 -0.033216946
000270 f0 e0 00 bc ae 17 27 3b 94 d4 5d bd 40 a2 a6 3b
       -0.007866129 0.0025496292 -0.05415781 0.0050852597
000280 d4 ab 7f 3d 59 17 a5 3d 24 81 cb bd 56 99 ac bd
       0.062419727 0.08061094 -0.09936741 -0.08427684
000290 f3 b0 9c bd 9c b9 f9 bd 03 36 73 3c 35 a9 34 3d
       -0.07650938 -0.12193605 0.01484442 0.04410668
0002a0 23 23 a9 bd 80 22 91 bd e6 e0 09 be ca a7 d0 3d
       -0.08258655 -0.070866585 -0.13464698 0.10188253
0002b0 fe 60 72 3d 8c 67 ce bc a9 c3 88 3c dd 1e 95 bd
       0.05917453 -0.02519586 0.01669486 -0.07281277
0002c0 7f 74 a4 3c 68 5d 7f bd 7e ab 0f 3e c9 cf d2 bd
       0.02007508 -0.06234494 0.14030263 -0.10293538
0002d0 60 57 de bd a2 16 d8 3d 11 03 2f bd 9f 36 fb 3a
       -0.10856509 0.10551192 -0.042727534 0.0019166059
0002e0 c0 95 37 bd 50 fb ac bd 13 8f 6f 3d cc 49 9c 3d
       -0.044820547 -0.084463716 0.058486056 0.07631263
0002f0 17 0f 8e bd e2 0f 84 bd 0e d0 06 bd 4e 66 85 bd
       -0.06936472 -0.06448342 -0.03291326 -0.06513654
000300 e1 ba f2 bd ad 68 1a 3d 87 40 e5 bb ba da f8 3d
       -0.118520506 0.037697483 -0.0069962176 0.12151094
000310 80 a0 78 3b a0 ba 23 3c 07 82 39 be 40 28 e7 bd
       0.0037937462 0.009993225 -0.18116008 -0.11286974
000320 05 4d 5f 3e 1c 30 1a 3d 71 6c ca 3c 56 9b c2 3e
       0.21806724 0.037643537 0.024709912 0.38009137
000330 08 74 0b bd 46 b9 f7 bd b8 5d 59 be 11 18 e8 be
       -0.034046203 -0.12095885 -0.21227157 -0.4533086
000340 0f 91 67 be 2b 10 dd bd fe 60 86 3e e6 5c c2 bd
       -0.22613929 -0.107940994 0.26245874 -0.09490375
000350 e4 99 0e bf 2d 2f 56 3e 5e a8 4d be 79 36 68 be
       -0.5570357 0.20916434 -0.20083758 -0.2267703
000360 e8 61 19 bd a0 90 17 3d 42 b2 58 bd bf 0e 0a 3e
       -0.037446886 0.03700316 -0.052904375 0.13482188
000370 f0 08 d4 bd 1b 1d 31 be a4 c1 96 bd 60 46 e2 bb
       -0.10353267 -0.17296259 -0.07361153 -0.006905362
000380 ac 95 20 bd e8 91 e2 bc 7c 96 0e 3f 94 8a 95 3d
       -0.03920524 -0.027657464 0.5569837 0.07301822
000390 51 21 94 bf 1c b5 e8 bd 50 e2 a5 be 73 bf a1 bd
       -1.1572667 -0.11362669 -0.32399225 -0.07897844
0003a0 d7 88 fa bd 44 15 39 bd 23 20 26 be f2 a5 44 bd
       -0.122331314 -0.045186296 -0.16223197 -0.04800982
0003b0 2f 4e f1 be 73 14 80 3e e7 65 61 bf bb 77 65 be
       -0.47129962 0.25015602 -0.88046116 -0.22408955
0003c0 e7 d7 84 be 88 c9 35 bd 26 80 5a 3d a4 ee 84 be
       -0.2594597 -0.04438165 0.053344868 -0.25963318
0003d0 c4 47 65 bb 08 a0 f3 bd 53 7d 2f 3d 8c 6e 44 bc
       -0.0034985403 -0.11895758 0.042844128 -0.011989247
0003e0 d8 23 b1 3d 00 ba cd bd a9 98 87 3d 69 b1 8a 3d
       0.08649415 -0.10045242 0.066209145 0.067721196
0003f0 00 77 a4 be f8 62 1c 3d cb ec ff 3c c0 1c 22 bd
       -0.3212204 0.03818032 0.031240841 -0.0395782

bias f4 [64]
000000 33 a2 61 3e 44 66 28 be b2 05 e4 bd bc 8c 51 3e
       0.2203453 -0.16445261 -0.11133899 0.20463842
000010 8d d3 0e bc 90 8b 84 3d 77 67 54 bd 4e 29 eb bc
       -0.00871743 0.06471932 -0.051856484 -0.028706219
000020 38 58 4f be 4e 15 e0 bd cf d5 c0 bd 7c fa eb bd
       -0.20248497 -0.109415635 -0.09415781 -0.115223855
000030 e8 eb 1b bd a1 52 f6 bd 13 2b 08 be b0 af 15 bd
       -0.038066775 -0.12027479 -0.13297682 -0.0365445
000040 c1 c4 e3 bc 9a 30 94 bd e3 89 0d 3d d8 f1 92 bb
       -0.02780378 -0.072358325 0.034555327 -0.0044843964
000050 30 18 00 bd 40 26 71 bd fd 9c 82 be 7e 37 9b bd
       -0.031273067 -0.05887437 -0.25510398 -0.07578944
000060 dd d4 01 be 97 e6 46 be d8 f1 85 3c 96 44 68 3b
       -0.12678857 -0.194239 0.016350672 0.003544127
000070 aa ea 6c 3a 72 9a ed bd 06 53 99 3c 3b d1 ea bd
       0.0009037653 -0.11601724 0.018716346 -0.11465689
000080 e0 8a 89 be 8c 91 b2 bc 5c 4a 82 be 18 40 03 bd
       -0.26863766 -0.021797918 -0.25447357 -0.032043546
000090 ef d0 dc bc 18 31 d7 bd 3c 09 48 be 11 73 9e bd
       -0.026955096 -0.10507411 -0.19534773 -0.07736791
0000a0 c3 db 0c be a4 01 1d bd 7e be 09 be e5 3e 16 be
       -0.13755707 -0.038331643 -0.13451573 -0.1467243
0000b0 4a 34 ad bd 38 96 c0 bb 65 27 ab bd 85 d4 c7 bd
       -0.08457239 -0.0058772825 -0.08357123 -0.09757332
0000c0 78 e9 0d be 05 37 e1 bd e9 31 48 be cd 32 55 be
       -0.13858593 -0.10996822 -0.19550289 -0.2082016
0000d0 02 03 2f bb 61 51 b9 39 c4 56 bc 3d 03 55 29 3e
       -0.0026704674 0.00035346582 0.09196237 0.16536336
0000e0 1d 2c a3 bd ef 45 83 bd 8f 4e 0c bd 9e 69 2a 3e
       -0.07967398 -0.06409823 -0.034254607 0.16641852
0000f0 1f 1e 05 3d ea bb f7 bd 9f ad 07 be 66 38 39 be
       0.03249943 -0.12096389 -0.13249825 -0.1808792

weight f4 [1, 64]
000000 aa 83 36 be a9 a3 f6 3b 62 07 96 bd 7f df b5 bd
       -0.17823663 0.007526834 -0.07325627 -0.08880519
000010 85 69 5f bc f5 13 9d 3c ac e7 61 3a dd 0e 5c 3c
       -0.013635998 0.019174555 0.00086175906 0.013431278
000020 0e 94 83 3d 25 5b a2 3d d6 2c 31 bd 7c 96 59 3d
       0.064247236 0.07927541 -0.04325565 0.05312203
000030 b1 18 07 bd e0 0b 0a 3e 6d 2f 0a bb 69 02 7b bd
       -0.032982532 0.13481092 -0.0021085397 -0.061281595
000040 b9 8a 3d be d4 8b fa bd 47 c6 1f 3d b0 04 3d 3c
       -0.1850995 -0.12233701 0.03900745 0.011536762
000050 10 8f d2 3d 5c 5c 9d 3d d7 bd e5 bc 87 d9 c3 bc
       0.10281193 0.07683632 -0.028044624 -0.023907436
000060 55 f8 02 3e e7 38 6a 3d fe 51 d0 bd 42 13 01 bc
       0.12790044 0.057183173 -0.10171889 -0.007878127
000070 88 8d 5e ba ac 95 b8 bd fc dd b1 bc 19 c8 b8 3c
       -0.0008489718 -0.09012923 -0.021712296 0.022556351
000080 01 ad 88 bb 86 82 27 3e 11 b1 e3 3b 7b 1e a6 bc
       -0.0041710143 0.16358384 0.006948598 -0.020278206
000090 4a 49 30 bc 10 f2 8f bb fb d4 d9 bb 85 bc fb bb
       -0.010759661 -0.00439287 -0.0066477037 -0.0076823854
0000a0 8e 2b 02 bc 7b 1a a5 3d 7c 66 97 bd e1 c5 a5 bc
       -0.007944955 0.080616914 -0.07392594 -0.020235958
0000b0 10 c3 93 3c c3 8b 0f 3c 1f d7 bc bd d7 03 da bc
       0.018037349 0.008761349 -0.092207186 -0.02661316
0000c0 f0 92 2d bc 55 88 86 bd 47 d0 cb bb e6 2c fa bb
       -0.010594115 -0.06568972 -0.006219897 -0.007634747
0000d0 f0 72 12 38 d2 fd c3 bc 36 81 69 3e 41 88 5e be
       3.4916156e-05 -0.023924742 0.22803196 -0.21731664
0000e0 5c 8c af bb 90 a5 50 bc b4 be 8b bd 47 46 bf bd
       -0.0053573083 -0.012734786 -0.06823483 -0.09339576
0000f0 e7 c7 37 bd f5 04 0c bc 00 30 76 bc c7 e1 ad bb
       -0.044868376 -0.008546104 -0.0150260925 -0.005306456
